_________________________________________________________________
Layer (type)                 Output Shape              Param #
=================================================================
conv2d_1 (Conv2D)            (None, 32, 32, 32)        896
_________________________________________________________________
activation_1 (Activation)    (None, 32, 32, 32)        0
_________________________________________________________________
conv2d_2 (Conv2D)            (None, 30, 30, 32)        9248
_________________________________________________________________
activation_2 (Activation)    (None, 30, 30, 32)        0
_________________________________________________________________
max_pooling2d_1 (MaxPooling2 (None, 15, 15, 32)        0
_________________________________________________________________
dropout_1 (Dropout)          (None, 15, 15, 32)        0
_________________________________________________________________
conv2d_3 (Conv2D)            (None, 15, 15, 64)        18496
_________________________________________________________________
activation_3 (Activation)    (None, 15, 15, 64)        0
_________________________________________________________________
conv2d_4 (Conv2D)            (None, 13, 13, 64)        36928
_________________________________________________________________
activation_4 (Activation)    (None, 13, 13, 64)        0
_________________________________________________________________
max_pooling2d_2 (MaxPooling2 (None, 6, 6, 64)          0
_________________________________________________________________
dropout_2 (Dropout)          (None, 6, 6, 64)          0
_________________________________________________________________
flatten_1 (Flatten)          (None, 2304)              0
_________________________________________________________________
dense_1 (Dense)              (None, 128)               295040
_________________________________________________________________
activation_5 (Activation)    (None, 128)               0
_________________________________________________________________
dropout_3 (Dropout)          (None, 128)               0
_________________________________________________________________
dense_2 (Dense)              (None, 3)                 387
_________________________________________________________________
activation_6 (Activation)    (None, 3)                 0
=================================================================
Total params: 360,995
Trainable params: 360,995
Non-trainable params: 0
_________________________________________________________________
